ml_model/modelo_ventas_rossmann.tflite (tflite, 45664 bytes, 6 tensors)

arith.constant f4 [2, 64]
00000000: 5644 2e3f cc06 16be 2d28 2d3f 7643 243f
00000010: 4de4 343f d513 833c b9f2 213f aecc 223f
00000020: 3d78 373f 4ce5 5cbd 8b7c 303f 8d63 48be
00000030: 1ae0 2e3f 8101 38be 6cf9 263f d42b 293f
00000040: 1a1d aabf 415d 223f 3f45 10be dbcf 2f3f
00000050: af0d 3f3f 6add 2b3f c744 513f 0b3b 293f
00000060: 8034 2b3f 1f80 2a3f 59af 09be 2073 3b3f
00000070: d2c8 7ebd a069 2d3f 6ac7 24be 2c51 353f
00000080: c138 2e3f e0f3 213f e99f 213f 96de a9bc
00000090: 165a 3f3f 5cae 323f a676 263f d8a5 4ebe
000000a0: a412 bcbc 52e4 ddbd 996c 283f 79b7 343f
000000b0: 3ce2 c7bf 5846 fbbc 23a6 2d3f 14c4 12be
000000c0: 508b 1b3f 7230 0b3e fce9 f4bd 2cdc 0fbe
000000d0: 7b20 363f 0d99 243b d145 333f 067e 253f
000000e0: 5c71 59be 284c 2c3f cd92 1a3f fa1f 1d3f
000000f0: ee4e 50bd a4f3 19be 164e b8bd 8661 febd
00000100: e5b6 783d c2ae c03e 2811 593d 5abf 693d
00000110: 5802 8b3d 5224 3fbe a55f 6a3d 3caa 853d
00000120: 66c1 8e3d 6c07 1dbe 1a6b 883d d7f4 423d
00000130: 83d6 3b3d 799c 0e3e cfe8 3d3d 0885 5d3d
00000140: 382c 8d3f 80cd 4e3d 9218 99bd f527 a03d
00000150: f0c6 793d 6c6c 443d b926 813d 8f4e 813d
00000160: f673 853d cda4 733d e939 f23d a2ec 963d
00000170: a828 1d3c 94a6 883d 7996 a33e 2f3b 623d
00000180: a135 843d 1af8 303d ff28 5c3d faef b0bd
00000190: 56d9 8c3d 0fd9 593d b16d 3f3d 0d60 1abe
000001a0: b28e 983e 9b28 1bbe 7a72 803d 237c 7d3d
000001b0: be4d 863e 00f0 9dbd 94b1 673d ff54 093d
000001c0: 34fe 243d 0161 1bbe 426f 993c baea 5a3e
000001d0: c28d 5c3d ddb6 1fbe e743 a03d 699d 8b3d
000001e0: 8d65 a03d 8ef7 443d f810 3f3d 1420 613d
000001f0: 8237 7c3d d4e2 42bd 6319 9abd 61a0 9cbd
0.6807302 -0.1465103 0.6763943 0.6416544 0.7066086 0.016000668 0.6326099 0.63593566
0.71667844 -0.053929612 0.6894004 -0.19569226 0.683107 -0.17969324 0.6522434 0.660825
-1.3290131 0.63423544 -0.14088915 0.6867654 0.74630255 0.67134726 0.8174557 0.6610572
0.66876984 0.6660175 -0.13445796 0.7322254 -0.062203236 0.67739296 -0.16091695 0.70826983
0.6805535 0.6326275 0.6313463 -0.02073602 0.74746835 0.697973 0.65024793 -0.20180452
-0.022958107 -0.10834564 0.65790707 0.7059246 -1.5615916 -0.030673191 0.6783163 -0.1433261
0.6075945 0.13592699 -0.119586915 -0.14048833 0.7114331 0.002511564 0.70028406 0.6464542
-0.2123465 0.67303705 0.6038025 0.6137692 -0.050856523 -0.15034348 -0.08999269 -0.12420945
0.060721297 0.3763333 0.052994877 0.057067253 0.067875564 -0.18666199 0.05722012 0.0652661
0.069704816 -0.15334862 0.06661053 0.04759678 0.04585887 0.13926877 0.0463646 0.054081947
1.102912 0.05048895 -0.074753895 0.07820121 0.060980737 0.04795496 0.06306214 0.06313812
0.065162584 0.05948334 0.11827452 0.07369353 0.009592213 0.06672397 0.3195074 0.055232223
0.064555414 0.043205358 0.053750034 -0.08639522 0.06877391 0.05318552 0.04673547 -0.15075703
0.29796368 -0.15152209 0.06271835 0.061885964 0.26231188 -0.07711792 0.056565836 0.033528324
0.04028149 -0.15173723 0.01872981 0.21378604 0.05384613 -0.155971 0.07825451 0.06817133
0.07831869 0.04808765 0.046647042 0.054962233 0.061576374 -0.0475796 -0.075243734 -0.07647777

arith.constant1 f4 [64, 128]
00000000: c679 20be 41ad 133e e1fa 83bd e8e4 72bd
00000010: f9a0 723e 3171 1ebd fa9a 243e 9762 773e
00000020: 88fb 3dbd 99e8 f03b f21e 903d b2dd 253d
00000030: bc0b 39bd a224 d03f 96ea 13bd d277 aa3d
00000040: c150 913e a737 b6bb b7fd 193e dbb7 773d
00000050: 5efc 393f 020f 9140 812f 703d 938f 92c1
00000060: a451 9b3d 5e49 45bc 37a3 2c3e 2dcd 1e3e
00000070: c3a7 11be 98d0 bd3c 8fd5 083e 2939 683d
00000080: b9c0 53bb 5607 92bd 7cc2 5e3e 63fa ea3c
00000090: a663 fa3d e607 a73d 5534 f43d c98d 853d
000000a0: 6df5 203d 92f0 993f 186a b5bc fa37 9e3d
000000b0: fc8e 283e f65d 50bc 1684 093e b6cd 693e
000000c0: 000c 923e 654a 7bbd 7cab b6bd 94c3 803b
000000d0: e463 ffbd 746a 173c 07ac b93c 2de1 a53c
000000e0: e52f 1d3e a7b6 aa3e 67a0 123e 7253 513e
000000f0: 8860 2abe 839e 18c0 166c faba c422 8abc
00000100: 2f08 e73d d1bf 43bd bbe3 8f3d f6c0 21bd
00000110: 36dd 863d f409 703c 59c2 8ebd 289d a83d
00000120: 3228 5d3d abd0 5f3e 6ea2 353e b95e 7d3d
00000130: 346d d73d 42b3 fb3d 2ce1 943d 54d1 f83d
00000140: b778 38bd 242e 793e d757 0a3d f092 1640
00000150: c1e4 113e 7be6 973d d8e2 863d 2d20 983d
00000160: 6d2a 0c3e 4572 603e 7574 6b3e 9090 ae3d
00000170: 9dcc 4440 0226 7b3d 898b e7bd b99b 253e
00000180: b275 a9bc 1983 e83f ced3 3c3e e68a 823e
00000190: 452c 7d3e e627 a63d 96d5 f23d f417 22bd
000001a0: 9974 303e 1094 183f c847 bc3d 8500 be3d
000001b0: 4201 5540 55fd c8be 9276 233e 74f5 7a3d
000001c0: 6ec4 48ba cb79 133d 45aa fb3d a7e8 943d
000001d0: 759a 253e 84de 4fbd e915 3d3c a8cd a83d
000001e0: deec 113e 7e65 723e 4317 b83d 836c 0341
000001f0: c722 8fc0 74eb 2b3d c89f d03d a8b5 f13d
00000200: cf24 0cbe 914e be3c 393f 1cbe 61ce 3fbe
00000210: 83b7 0dbe 12b2 163d 3efc fa3c 476d 73bc
00000220: 444e 30bd 1c4b 863d 0922 39be 50f7 19be
00000230: 6792 d2bc 28bf 3abe fee2 febc 6cba ffbd
00000240: 306a b23d d830 7b3d d0a0 08be f2d6 43be
00000250: dc57 c93d b081 103d 53ff 48be 7f45 1ebe
00000260: 8742 4dbd 9170 a0bd 9cd5 8ebd bc65 e3bb
00000270: 2e48 48be d18c 22bd 2e1e 8bbd f89d 6bbd
00000280: 5653 86be e30e 93bd f08f bb3d 0f69 f3bd
00000290: 67f1 4a3d 9de0 cd3d b8ad 36be b47e e8bd
000002a0: ff63 aebd 3a83 b73c fde4 63be 5329 3abd
000002b0: 97af e63d 6f93 4b3c d683 14be 2577 6abe
000002c0: 79c9 1e3c 605a cdbd 7ea4 28be d932 21be
000002d0: d7cb 2dbe f029 febd 1425 9a3d 5efd 6ebd
000002e0: 2b78 10bd 2b48 a9bd 4745 02be dc82 5d3d
000002f0: 8e60 dfbd 1d4a 2bbe 43a0 45be 780e 1d3d
00000300: 0469 23bd 3c09 0cbe e31e 0bbe cafe af3c
00000310: 7c67 c1bd a296 81ba 5d87 bcbd 4027 f93c
00000320: 2c93 93bd 24aa 7cbd bae2 18be 2fd8 ba3c
00000330: 0ea4 46bc 9478 783d 58f5 3ebe 4e91 183d
00000340: 5ae2 d6bd c458 3abd 8b10 a1bd f297 1abd
00000350: 3d6b 7a3c d4d7 c2bd c030 6a3b c4f2 0cbd
00000360: 3dea 25be 04ca 1c3d b8df acbd 2fff 06be
00000370: e462 193d f4d4 c7bd f92b ffbc bf12 32be
00000380: 8171 56be 959b b5bd 9459 ba3d 6a8c 633d
00000390: 6603 9fbd fde2 ccbd 6564 8e3d 38d3 d7bd
000003a0: 1c5f 66be e7b8 81bd 4ab1 0e3d 23be 38bd
000003b0: ac26 133d aa70 56bc 38a1 3ebb a462 e1bd
000003c0: edd6 0f3c c257 d0bd b4a5 593d edb8 53be
000003d0: a096 c3bd 1624 a4bd 8da0 e8bd 35eb 28bc
000003e0: 8c1f febd 7784 003e dc36 51be 9353 dcbd
000003f0: d8d1 b5bc 6dff 5fbe ab5e 31be dfba 9dbd
-0.15671453 0.1442156 -0.06444336 -0.059300333 0.23694219 -0.038682166 0.16074744 0.24158703
-0.046382457 0.0073519466 0.07037152 0.04049463 -0.045177206 1.626118 -0.03611239 0.08323635
0.28381923 -0.0055608335 0.15038191 0.060478073 0.72650707 4.533082 0.058639053 -18.320105
0.07583931 -0.012041418 0.16859137 0.15507956 -0.14224152 0.023170754 0.13362716 0.056695137
-0.0032310917 -0.071303055 0.21753877 0.028683847 0.12226038 0.081558034 0.11924044 0.06521184
0.039296556 1.2026541 -0.022145316 0.077255204 0.16460794 -0.0127177145 0.13429293 0.22832379
0.2852478 -0.061350245 -0.08919427 0.0039295647 -0.124702245 0.009241689 0.022665037 0.020248974
0.15350302 0.33342478 0.14319001 0.20441988 -0.16638386 -2.3846748 -0.0019105698 -0.01686228
0.11280858 -0.047790352 0.07025858 -0.039490663 0.065851614 0.0146508105 -0.069706626 0.082331
0.05399341 0.21856944 0.17737743 0.061857913 0.10518876 0.1229005 0.072695106 0.12149301
-0.045036998 0.24334008 0.033775177 2.3527184 0.14247419 0.074170075 0.06586236 0.07428012
0.13688059 0.2191859 0.22993644 0.08523667 3.0749886 0.061315544 -0.11305911 0.16172685
-0.020686004 1.8165008 0.18440172 0.25496596 0.24723919 0.08113079 0.118571445 -0.039573625
0.17231978 0.59600925 0.09193379 0.09277443 3.3282018 -0.39255777 0.159632 0.06126924
-0.0007658665 0.036004823 0.12288336 0.072709374 0.16172202 -0.050749317 0.011540868 0.08242351
0.14250514 0.23671529 0.08988812 8.213992 -4.4729953 0.041972592 0.10186726 0.11802226
-0.13685916 0.023230823 -0.15258493 -0.18731071 -0.13839535 0.036790915 0.030637857 -0.014857597
-0.04304339 0.06557295 -0.1807939 -0.15035748 -0.025704576 -0.18236983 -0.031114098 -0.12486729
0.0871166 0.061325878 -0.13342595 -0.19124964 0.09831211 0.03527993 -0.19628648 -0.15456198
-0.050112274 -0.0783397 -0.069743365 -0.006939618 -0.19558784 -0.039685074 -0.06792866 -0.057523698
-0.26235455 -0.07180574 0.09158313 -0.11885273 0.049546625 0.10052607 -0.17839706 -0.11352292
-0.085151665 0.02240144 -0.22255321 -0.045449566 0.1126396 0.012425288 -0.14503416 -0.22897013
0.0096915895 -0.10027003 -0.16468999 -0.15742053 -0.1697229 -0.12410343 0.07526603 -0.0583471
-0.03527085 -0.08265718 -0.1272174 0.054079875 -0.10907088 -0.1672749 -0.19299416 0.038343877
-0.039895073 -0.13675398 -0.13586001 0.021483798 -0.09443566 -0.0009886811 -0.09205506 0.030414224
-0.07205805 -0.061685696 -0.1493024 0.022808162 -0.012124075 0.060661867 -0.18648279 0.03724795
-0.10492392 -0.04549481 -0.078644834 -0.037742563 0.015284357 -0.09513822 0.0035734624 -0.034411207
-0.16202636 0.038278595 -0.084411085 -0.13183282 0.037447825 -0.097574145 -0.031148897 -0.17389964
-0.20941736 -0.088675655 0.09099117 0.05555383 -0.0776432 -0.10004232 0.069527425 -0.10538334
-0.22497219 -0.063340954 0.034837045 -0.045103204 0.035925552 -0.013088385 -0.0029087793 -0.11005142
0.00877927 -0.101729885 0.053136542 -0.20676012 -0.09550214 -0.08014695 -0.11358748 -0.010309984
-0.12408361 0.12550531 -0.20431083 -0.10758128 -0.022194788 -0.21874781 -0.17321269 -0.077016585

arith.constant2 f4 [2]
00000000: 3d4a 4a43 fa8b 1343
202.29 147.54678

sequential_1/dense_1_2/BiasAdd/ReadVariableOp f4 [64]
00000000: ddf2 4742 70e6 c5bd 8548 4842 e5c7 4842
00000010: 8bae 4842 efad dbbd 5862 4942 b737 4942
00000020: 4cfd 4742 28d3 a8bd 99fd 4842 ef60 41bd
00000030: bc6d 4842 8c9a 96bd 1791 4842 223f 4942
00000040: 4a73 9abf 626c 4842 da1d a0bd 62b4 4842
00000050: 90e7 4842 1118 4842 8f82 4842 972d 4842
00000060: 3225 4842 3c1c 4942 be46 d1bd fe52 4842
00000070: adbb 96bd 797e 4742 a762 9ebd f4f2 4842
00000080: ac8a 4742 d8fd 4942 8b3c 4942 91e3 bbbd
00000090: 78d2 4742 e70f 4942 3801 4a42 1d6c debd
000000a0: b92e b5bd d840 92bd 9df3 4742 b530 4842
000000b0: d3ce 7bbf 0fc6 8abd f18e 4742 77da 8abd
000000c0: 8cf3 4842 9c6a 443c 4c33 2dbd a101 9dbe
000000d0: 3d47 4842 562a c4bd 4e9c 4842 f0f2 4842
000000e0: adca acbd e5eb 4642 ce0d 4842 4a48 4a42
000000f0: 52f0 a0bd f62a c6bd 3a6a a6bd 448e 94bd
49.98717 -0.09663093 50.07082 50.19521 50.170452 -0.107265346 50.34604 50.30441
49.99736 -0.082434 50.247654 -0.047211584 50.107162 -0.07353696 50.14169 50.311653
-1.2066433 50.105843 -0.07818194 50.176155 50.226135 50.023502 50.1275 50.04452
50.036324 50.277573 -0.10218571 50.081047 -0.07360015 49.87351 -0.0773366 50.23726
49.88542 50.497894 50.309124 -0.09174264 49.955536 50.26553 50.50119 -0.10860465
-0.08846802 -0.07141274 49.987904 50.047565 -0.98362464 -0.06776058 49.88959 -0.0677995
50.23784 0.011988308 -0.04228525 -0.30665305 50.06957 -0.095783874 50.15264 50.237244
-0.08437095 49.730366 50.01348 50.570595 -0.078583375 -0.09676163 -0.0812573 -0.072536975

sequential_1/dense_1/BiasAdd/ReadVariableOp f4 [128]
00000000: 2a6b f440 8729 f940 a0f0 f740 f6fd f240
00000010: b3fb f940 1706 f440 7dd3 f240 90d2 f540
00000020: 405d f8bc 6d16 90bc 4d89 f640 5e4c b8bc
00000030: d194 f340 bb5e e6c0 a9cf fa40 b59c f540
00000040: e0ad f940 23d7 fa40 b916 f240 141c fa40
00000050: ec5a 743f 8073 0ac0 3f01 f740 e8ba 633f
00000060: 1428 ec40 548c f740 c226 ed40 d39c f140
00000070: da39 f640 5de5 fd40 23d1 f040 4c74 fa40
00000080: 7001 f840 5b84 f640 8a50 ff40 0c7c f040
00000090: 74e0 fe40 e7c6 f740 efe1 f640 5634 f640
000000a0: 3c81 fa40 8f4d cbc0 811c fa40 89ef f740
000000b0: ba88 f940 562f fa40 1dd4 fa40 d10e f640
000000c0: 72cb f940 e885 ef40 f431 ec40 3730 fc40
000000d0: 7658 f840 8a66 fe40 d51b f640 a028 fa40
000000e0: 1761 f640 c9ae fa40 4676 f740 3884 ff40
000000f0: b11d f840 12e6 6f40 50a9 f740 4772 f940
00000100: 5d13 4cbd db2b f540 359a fb40 1fbf f640
00000110: bb76 ccbd 8191 f640 bb6d f840 a364 fa40
00000120: f4cd f140 5604 f740 7de6 f740 aba4 f740
00000130: a685 f540 ac12 c2bc 2610 f940 d15b f640
00000140: dc89 f540 137d 0241 33d2 f540 8b7f 2740
00000150: fe3b f940 19e6 fa40 0c52 21bd 0b04 fc40
00000160: d9ff ea40 f378 ee40 aa9e f540 1513 f840
00000170: 4c33 3f40 661f f740 dab6 f740 6506 fa40
00000180: ffe2 f040 4b4f e1c0 2b76 fa40 c618 f440
00000190: 9f63 ff40 ae55 f140 6406 f840 5476 ee40
000001a0: 599e fa40 51fd d0c0 3466 fd40 ca75 f440
000001b0: a960 d7c0 3bb8 a440 a161 f640 d9fc f540
000001c0: 7af1 fb40 987b f640 c7c3 f440 f9ec f940
000001d0: cfef f240 6fd5 fd40 fb4a f440 82f6 f840
000001e0: 7d6c f840 a5fe fe40 1fec f940 d6ec 34c1
000001f0: 074b e23f d723 fa40 28f3 f040 2da5 ee40
7.6380816 7.7863193 7.748123 7.593501 7.811975 7.6257434 7.5883164 7.6819534
-0.030317903 -0.017588818 7.7042603 -0.022497352 7.611916 -7.199064 7.837849 7.6753793
7.802475 7.838762 7.565274 7.8159275 0.95451236 -2.1632996 7.718902 0.8895707
7.3798923 7.73588 7.410981 7.5503936 7.694562 7.9342484 7.5255294 7.8266964
7.7501755 7.7036567 7.9785814 7.5151424 7.964899 7.74303 7.71508 7.6938887
7.8282757 -6.3532176 7.8159795 7.74799 7.7979403 7.8182783 7.8383927 7.6893086
7.8060846 7.485096 7.381098 7.8808856 7.7607985 7.950017 7.6908975 7.817459
7.699352 7.833836 7.7331877 7.98489 7.7536244 3.7484174 7.739418 7.7952
-0.049823154 7.6616035 7.862574 7.71083 -0.099835835 7.7052617 7.763395 7.8247848
7.556391 7.7192793 7.746886 7.738851 7.6725645 -0.023690544 7.7832212 7.698708
7.6730785 8.155536 7.681909 2.6171596 7.7885733 7.840588 -0.039384887 7.8754935
7.3437314 7.4522643 7.675618 7.7523293 2.987506 7.722583 7.7410707 7.8132806
7.5277095 -7.0409293 7.826925 7.628024 7.980911 7.541709 7.75078 7.4519444
7.8318295 -6.5309224 7.918726 7.6393785 -6.7305493 5.147489 7.6994176 7.687115
7.873227 7.702587 7.6488986 7.8101773 7.5917735 7.932304 7.634153 7.7800913
7.763243 7.9685845 7.8100734 -11.307821 1.7679147 7.816875 7.529682 7.457663

sequential_1/dense_1/MatMul f4 [128, 19]
00000000: 7ebc 03bd 3860 1e41 f78c ad3e 9a64 ab3f
00000010: b296 85bc 1f65 eabf 8cc8 da3e 9753 7fbe
00000020: b472 3640 0753 bd41 5479 d43f 335a 74bd
00000030: b50a 7c40 16c2 29c0 7f29 0341 5a56 e040
00000040: a36f 8c40 840e c640 e1e2 a3bf 1683 65bc
00000050: 1df8 1b41 c624 983f 8632 943f eeaf 533e
00000060: 4e27 89bf fdb1 333f ec3c 8dbe 5415 3040
00000070: 919e bb41 87da 0240 6be4 6b3d 8b7c 8240
00000080: 7758 36c0 cfee fe40 b814 e740 5724 8a40
00000090: 8192 e240 e36d ddbf 709a d9bb 3cb1 1f41
000000a0: 7971 9d3f c8b2 8f3f e6a5 c23e f95b f6bf
000000b0: 2693 723f c9a3 45bf b508 2f40 a070 b141
000000c0: 01ce d13f 79f6 ad3e 13d5 7840 d441 82c0
000000d0: ee4f 0b41 7f57 e340 bba2 8640 1f71 d140
000000e0: 5879 bebf f737 083c d77a 2241 3a72 783f
000000f0: 9895 9b3f f9ad 2e3e c9ec 62bf 73df ab3e
00000100: bc68 53bf 1f72 2740 63f4 b741 d2a3 ef3f
00000110: 74df 99bd e846 8640 b75c 5ac0 c0de f740
00000120: 4a89 dd40 b81f 9140 6734 b940 0190 8fbf
00000130: d3ea 323c 4716 2741 cb02 8c3f fb1c 8e3f
00000140: b814 7abe d201 babf 30a1 493e 59e5 51bf
00000150: 4455 4040 b2b7 b941 08fa cb3f a66d 6e3e
00000160: 1d8c 8e40 b619 43c0 f75c fc40 374c e240
00000170: 832e a940 a196 d040 d04e 84bf 2f8e 883b
00000180: 9e31 2141 6b14 2c3f 5295 003f 9e2b 6d3e
00000190: 8c27 49bf 59f1 263f 074a ecbe 8ddf 2b40
000001a0: ff08 bb41 f43d 0c40 fd2d 39be eb40 9140
000001b0: 6864 55c0 0cd9 fc40 c33b d940 581c 9840
000001c0: c58f e440 988c 01bf 6c5c cdb9 f6b8 1b41
000001d0: db0e 153f a9f4 d33e 4bff bdbe 2126 6cbf
000001e0: 0c85 073d 11dc 19bf dcb3 2140 ba0b c141
000001f0: 202e fd3f 240d 19be ea0c 7340 717d 0ac0
00000200: e264 0041 dccb dd40 cdef 9a40 f5ff d440
00000210: 4947 f4bf 45ee 40bc dace 2341 276a dc3f
00000220: b465 b33f fe9e eebd 82ea 29bf 2336 c73e
00000230: bed0 2cbe b682 2c40 8e60 bb41 a3cd d73f
00000240: ee5b c4be 23c9 8440 78d8 65c0 3260 fc40
00000250: 0ebc dd40 a5f3 8040 131d e040 7c13 89bf
00000260: 70c7 67be 2efa 96bd 9e9c 0dbe 30c0 d7bd
00000270: 89f6 2c3e 3192 0d3e 3460 1abe 46e0 8b3d
00000280: 3085 f33b 1b41 34be 98ca b2bd 18ea 21bd
00000290: 4b91 f9bd 40d4 343e 186d 1e3e c8d1 48be
000002a0: c8e2 f03c 3ba7 0bbe 3ccb f5bd fde2 0fbe
000002b0: 8099 a8bc 2080 03bc f44b 1a3e aa72 153e
000002c0: 9404 8ebd 5faf de3d fafe e83b ca3b 183d
000002d0: a054 e43b 37be 10be 8809 dc3c 7d1a 42be
000002e0: 99e9 fdbd 4a6d 453e 8b52 28be 1e95 433e
000002f0: 104a 8cbc 24ea 96bd c76f c3bb 033b 1d41
00000300: 859b aa3f 9c95 953f d59c ecbc 2ae5 a8bf
00000310: f493 fb3e af5c b2bd fef3 2440 e41a b741
00000320: 70cf fe3f 495b 273f cb2d 6540 3f36 4cc0
00000330: 5b7b 0541 c8aa dd40 dfd9 8740 218a bf40
00000340: 637c c2be 99ba dfbd 5b93 273e f4ad cbbd
00000350: fcd6 423d d91d 89bc c5d3 903d 5aab 503d
00000360: 17de a0bd 6688 34be 0efc 0d3e 4771 1fbe
00000370: 2473 3f3e 534d a5bd 080e 143e fc10 fa3d
00000380: be5c e6bd 242b 31be 2cae 0c3e acd8 45be
00000390: cacc 6f3b e414 2841 b3b1 ad3f 7d0d 853f
000003a0: a020 58bf 9d80 9cbe 5461 11be c229 7ebf
000003b0: f800 4440 65b0 b541 ed6c ca3f dc81 01bf
000003c0: 894a 8140 0b2c 16c0 6cbd fc40 80fe df40
000003d0: ea1e 8440 3579 d840 cbf1 c0bf e1ed 5ebb
000003e0: 4fd0 1d41 a1f4 dd3f 84cd e23e e05b 8540
000003f0: 31f9 a53f e526 16c0 5eef 81c1 035d 8dc0
-0.032162182 9.898491 0.3389661 1.3390076 -0.016307209 -1.831211 0.4273113 -0.2493423
2.850751 23.66554 1.6599526 -0.059656333 3.9381535 -2.652471 8.197631 7.010541
4.3886275 6.189272 -1.2803613 -0.014008304 9.748075 1.1886222 1.1577919 0.2067258
-1.071512 0.70193464 -0.27585542 2.7513018 23.452425 2.0445879 0.057590883 4.077703
-2.8491495 7.9666514 7.221279 4.316936 7.080384 -1.729916 -0.006640725 9.98077
1.2300254 1.1226435 0.38017195 -1.9246818 0.9475578 -0.7720304 2.7349064 22.179993
1.6390992 0.33977106 3.888005 -4.0705357 8.707014 7.1044307 4.2073646 6.5450587
-1.4880781 0.008314124 10.15499 0.97049296 1.2155027 0.17058553 -0.88642555 0.33568916
-0.82581687 2.6163404 22.99433 1.8721869 -0.075133234 4.1961555 -3.4119089 7.745941
6.923009 4.535122 5.787647 -1.1215822 0.010920244 10.442939 1.0938352 1.1102594
-0.24421966 -1.4531806 0.19690394 -0.8199058 3.0052042 23.214695 1.5935678 0.23284015
4.4546037 -3.0484443 7.8863482 7.0718036 5.2869277 6.5183873 -1.0336552 0.00416734
10.074614 0.67218655 0.50227845 0.2316117 -0.7857597 0.6521202 -0.46150228 2.6855195
23.379393 2.1912813 -0.1808395 4.5391746 -3.3342533 7.901495 6.788545 4.75346
7.14255 -0.50605154 -0.00039169507 9.7326565 0.5822579 0.41397598 -0.37108836 -0.9224568
0.033085868 -0.6010142 2.5266027 24.130726 1.9779701 -0.14946419 3.7976632 -2.1639063
8.02463 6.931135 4.8417726 6.6562448 -1.9084255 -0.011775558 10.238001 1.7219895
1.4015412 -0.11651419 -0.66373456 0.3890849 -0.16876504 2.695478 23.422146 1.685963
-0.38351387 4.149553 -3.5913372 7.8867426 6.929206 4.029742 7.003549 -1.0709071
-0.22634673 -0.07371937 -0.13829276 -0.10534704 0.1689092 0.13825299 -0.15075761 0.06829886
0.0074316487 -0.17602961 -0.08730048 -0.03952989 -0.121859156 0.17659092 0.15471303 -0.19611275
0.029405013 -0.13638012 -0.120016545 -0.14051433 -0.020581007 -0.008026153 0.15068036 0.14594522
-0.06934467 0.10873293 0.0071104737 0.037166394 0.006968096 -0.14135061 0.026860014 -0.18955417
-0.12398071 0.19279972 -0.16437738 0.19099852 -0.01712516 -0.073688775 -0.0059642526 9.826907
1.3328711 1.1686282 -0.028883377 -1.3194935 0.49136317 -0.08709084 2.577392 22.88813
1.9907055 0.65373665 3.58092 -3.190811 8.342616 6.9270973 4.2453456 5.9856114
-0.37985525 -0.109242626 0.16364805 -0.09945288 0.047568306 -0.016737865 0.07071642 0.050944664
-0.0785486 -0.17630157 0.13865682 -0.15570556 0.18696266 -0.08071389 0.14458477 0.12210271
-0.11248158 -0.17301613 0.13738316 -0.19320935 0.003659057 10.5051 1.3569854 1.0394741
-0.8442478 -0.30566874 -0.14197284 -0.9928247 3.0625591 22.71113 1.5814492 -0.50588775
4.0403485 -2.3464382 7.898123 6.999817 4.1287737 6.764796 -1.5073789 -0.0034016299
9.863357 1.734028 0.4429742 4.167465 1.2966672 -2.346124 -16.241879 -4.417604
